models/NN-time2022-12-16_10-fold0.pt (torch, 398581 bytes, 9 tensors)

fc1.weight f4 [180, 180]
000000 fa a5 63 3d 99 dd 6c 3e b7 fa 1a 3d 3b cf 92 3c
       0.05557821 0.23131408 0.037836757 0.01792108
000010 89 0d 0c 3d 3f 5e f6 3d b0 9a 13 3e e3 74 0d be
       0.034192596 0.12029695 0.14414477 -0.1381412
000020 5b 37 b2 3d 2a 27 fd 3d d0 6a 92 bd 9e 22 c6 3d
       0.087019645 0.123609856 -0.07149279 0.096745715
000030 40 ec 8d 3e 95 d8 29 3e ae 33 0f 3e 78 fa f9 3c
       0.27719307 0.16586526 0.13984558 0.03051494
000040 bd 29 f6 3d 5c 53 ba 3b bd 2a 95 3c 34 d5 86 bd
       0.1201968 0.0056862067 0.018208856 -0.06583634
000050 cc 3c af 3d 13 db be 3e 4a 5c 18 3e 2c 9a a1 3d
       0.08556518 0.37276515 0.14878955 0.07890734
000060 fb ce 39 3e fe 01 11 3e 9c 29 27 3e 60 d8 49 3e
       0.18145363 0.14160916 0.16324466 0.19711447
000070 be 92 a4 3e 79 2d 0e be e4 32 40 bd d9 69 92 3e
       0.32143205 -0.13884534 -0.046923533 0.2859638
000080 33 b4 6e 3e 2e a4 19 3e 27 48 91 3e 4b d8 60 3d
       0.23310928 0.15004036 0.2837536 0.054893773
000090 34 16 f3 bc a2 b3 0d be a0 38 0e 3e 53 3b 49 3d
       -0.029673673 -0.13838056 0.13888788 0.04912884
0000a0 88 9d de bd f2 39 ac bc aa 4e 0f 3e 96 57 84 3e
       -0.108698905 -0.021023724 0.13994852 0.25848073
0000b0 ad 28 fc 3d 4d 7f a7 bd 92 af fb 3d 26 f9 2d bd
       0.12312446 -0.081785776 0.12289347 -0.042473935
0000c0 64 d5 87 3d ce 7a f2 3d 62 35 9c 3d 48 ad f0 3d
       0.06632498 0.118398294 0.076273695 0.11751801
0000d0 6d d6 a0 bc 4e d9 84 3d 67 70 4f 3d d9 e8 28 3d
       -0.019633496 0.0648676 0.050644305 0.041237686
0000e0 41 1f 7b 3d 96 ec 20 3e d4 bd 16 3e 42 cb 6d 3d
       0.061309103 0.1571525 0.14720851 0.05805517
0000f0 e9 8a af 3d d9 cb f4 3d 6b 25 fa bc 79 1f c8 3c
       0.08571417 0.11952943 -0.03053542 0.02442907
000100 bd f6 24 3d 47 1e 0c 3d 3d e1 20 3e b1 59 5f 3d
       0.04027437 0.034208562 0.15710922 0.054528896
000110 e7 28 f8 3d 37 18 72 3d 05 9c 69 3e ba ec 4b 3c
       0.121171765 0.059105124 0.22813423 0.012446577
000120 62 85 58 3d d9 fe 10 3e bf bb fb 3d bc 97 18 3e
       0.05286158 0.14159717 0.12291669 0.14901632
000130 37 07 f2 3c d4 74 3d 3e 2a 07 0b 3e 26 7f 05 3e
       0.029544456 0.18501598 0.13576952 0.13036785
000140 68 4e a2 3c ad 19 58 3d a3 91 33 3e 07 50 97 bc
       0.019812778 0.05275886 0.17536025 -0.018470777
000150 e8 49 34 bc 04 7c d1 3c e6 51 30 3c 32 84 e6 bc
       -0.011003949 0.02557183 0.010761714 -0.028139208
000160 65 7a 06 3d 5d 98 19 3e 43 1c 18 3e 55 73 d9 3c
       0.03283157 0.14999528 0.14854531 0.026544252
000170 94 db 4e 3e 41 28 31 3d 78 e1 e0 3d 6e 3c 10 3e
       0.2020095 0.04325128 0.10980505 0.14085552
000180 34 50 48 3d c8 1d f8 bc be 02 3a 3d 58 c8 0c 3e
       0.048904613 -0.030287638 0.04541277 0.137483
000190 fd 7d c3 3d 2e de c6 3d 35 0d 82 3e 16 93 45 3e
       0.09545515 0.09710346 0.254007 0.1929439
0001a0 52 1a 9c 3b 2b d5 1b 3e 1f 9b f4 bc 9a 06 ad bc
       0.00476388 0.15218036 -0.029859124 -0.021121312
0001b0 30 cd 0e 3e 65 88 1c 3d 22 db 0c 3e 97 52 c5 3d
       0.1394546 0.038216013 0.13755468 0.096348934
0001c0 24 4d d5 3b 62 b2 df 3d ff 70 b7 3d cc 8e bd 3c
       0.00650944 0.10922696 0.08957099 0.02313938
0001d0 60 da 8f 3d a4 39 65 3d ee b6 17 3e 97 2a 49 bd
       0.070240736 0.055963174 0.14815876 -0.049112882
0001e0 59 04 fd 3d 2d cf 06 3e 5e a6 65 3d 00 77 36 3c
       0.12354345 0.13164969 0.056066863 0.01113677
0001f0 be 46 2b bd 8f 58 07 bd 10 6a 29 be 61 3f 6e 3d
       -0.041815512 -0.03304344 -0.16544366 0.05816591
000200 01 38 dc 3d 32 12 1e 3e 13 f1 8d 3e 95 8f 18 3e
       0.107528694 0.15436628 0.27722988 0.14898522
000210 6e 7e eb 3c 25 8b 27 3d 40 a7 96 3d d9 f7 39 3d
       0.02874681 0.040904183 0.07356119 0.04540238
000220 ad 06 1d 3e e8 bf b3 3d 8c d0 5a 3c 90 48 cb 3d
       0.15334578 0.087768376 0.0133553855 0.099259496
000230 44 63 de bc a4 96 05 3e df e8 8d 3d 9e a7 82 3d
       -0.027146943 0.13045746 0.06929182 0.06379627
000240 1c 62 b4 3d 72 a1 bd 3d 7d 4c a5 3c f0 87 0b 3e
       0.088077754 0.09259309 0.020178074 0.13626075
000250 13 df 9c 3d 51 71 62 bd 56 70 7a 3e 95 6e 21 3e
       0.076597355 -0.05528385 0.24456915 0.1576484
000260 95 9f c3 3d bc 64 75 3d ae 17 99 3d 3f 91 ac 3c
       0.09551922 0.05991052 0.0747522 0.021065352
000270 fa 8a b5 3d cb bb 00 bc f8 59 b0 3e 52 cf 0c 3d
       0.08864398 -0.007857273 0.3444364 0.034377404
000280 5b 34 1c bd 79 a1 b9 3e af 45 07 3d f1 4f 33 3e
       -0.038135868 0.36256006 0.03302544 0.17510964
000290 f0 cf 05 3e 8c 62 69 3e 4d d9 28 3e 58 6b f4 bd
       0.13067603 0.22791499 0.16489144 -0.11934537
0002a0 60 30 8d 3d 5e ff 86 be 3c 2f a7 bd c2 bd 53 3e
       0.068939924 -0.26366705 -0.08163306 0.20677856
0002b0 db 27 f1 3d 76 8f 77 3e 1c b5 4b 3e d2 5f 06 3e
       0.1177518 0.2417582 0.19893306 0.1312249
0002c0 3d 21 c5 3e a6 06 05 be 50 00 65 3e 40 ba 1a 3e
       0.3850192 -0.12990817 0.223634 0.15110111
0002d0 24 2c c1 bb 72 52 e4 3c f0 62 cd 3d ec 9b 2c 3d
       -0.0058951546 0.027871344 0.100286365 0.042140886
0002e0 86 06 a0 3b 28 c5 73 3e 78 86 0d 3b 55 be eb bd
       0.00488359 0.23805678 0.0021595042 -0.11510912
0002f0 19 a0 e8 bc 47 b8 64 3e 80 cf d7 3d 1e f8 a2 3c
       -0.028396653 0.22335921 0.10537624 0.019893702
000300 09 54 17 3e 4d a5 bc 3d 13 d3 2f 3c 02 3a b7 bd
       0.1477815 0.09211216 0.010731476 -0.08946611
000310 7a f9 ee 3b 9e 2f 22 be 99 6d 05 3d 7a e9 03 bd
       0.0072929235 -0.15838477 0.032575224 -0.032205082
000320 9d 77 50 3d db 86 b8 3d ef ee 14 3e 1c 2a 1e 3d
       0.050895322 0.09010097 0.14544271 0.038614377
000330 c4 90 64 3c f1 ac d8 3c 08 76 1d 3e 86 c1 09 bd
       0.01395053 0.026449652 0.15377057 -0.033631824
000340 38 0f 4d 3e bf fa b7 bd ba 4d ed bc 82 98 01 3e
       0.20025337 -0.08983373 -0.028967727 0.12655833
000350 61 f4 3d 3e 78 d2 e7 3a bb 42 f7 3d 1c 92 63 bd
       0.18550254 0.0017686626 0.12073275 -0.055559263
000360 cd 4e 98 3e e2 a2 d2 bd 88 57 d7 3c 57 99 e1 3d
       0.2974762 -0.10284974 0.026286855 0.110155754
000370 25 64 ec bc 89 f8 99 3c 6a d3 e4 bc bb 9c 90 3c
       -0.028856346 0.018795269 -0.027932841 0.01765286
000380 2c be 2d be 00 90 39 3e 67 76 50 3b 7c 2c a1 3d
       -0.16967076 0.18121338 0.0031808855 0.07869813
000390 a0 63 72 bd d9 14 ae 3d 58 67 9f 3d 04 19 6b bc
       -0.05917704 0.0850007 0.07783383 -0.014349226
0003a0 c3 bd 97 bd 98 66 9a bd 53 7c 16 3e ce 7d b0 bd
       -0.07409241 -0.075390995 0.14695863 -0.08617745
0003b0 c2 6c c1 3d e1 c7 6f 3e 77 35 6c bd fc cd 2c bc
       0.09444572 0.23416092 -0.057668176 -0.010547157
0003c0 6f 99 7b 3e 54 40 32 3e ac 99 ab bd c3 08 d6 bd
       0.24570249 0.17407352 -0.0837892 -0.1045089
0003d0 f4 d8 9d 3d 00 e6 b7 bc d3 48 e0 bc 83 05 29 3e
       0.07707396 -0.02244854 -0.027378475 0.16506009
0003e0 b9 f9 ec bc ec d5 23 bd fa ae d0 3d fd 27 39 be
       -0.02892767 -0.039998934 0.10189624 -0.1808166
0003f0 4e c9 44 be 31 13 a2 bc 34 c3 38 3e a7 ed 70 bd
       -0.19217417 -0.019784542 0.18043214 -0.058820393

fc1.bias f4 [180]
000000 46 97 d1 3d 8b 9c 84 bd 65 35 39 3e 42 e0 04 3e
       0.10233931 -0.06475171 0.18086775 0.12976173
000010 f7 9f 87 3d 7e 48 cf 3d 5a e1 f7 3c 75 4e 96 3d
       0.06622308 0.10121249 0.030258823 0.07339183
000020 e6 11 20 3e 68 b1 97 3d 7b d8 b8 3d ce 63 bf bd
       0.15631828 0.074068844 0.090256654 -0.09345208
000030 88 3e a7 3d 9c 71 01 3e 8b 8d 04 3e a2 81 8e 3c
       0.08166224 0.12640995 0.1294462 0.017395798
000040 68 99 13 3e b4 bf 8f 3d 69 a1 2a 3d cf f6 cc 3c
       0.14413989 0.07018986 0.04165784 0.025020031
000050 bf b7 86 3d df 93 8a 3d 91 ac 23 3e 71 3d 8e 3d
       0.065780155 0.067664854 0.15983798 0.06945313
000060 13 36 62 3d df 5b 1b 3e ed 98 06 3e 7c 70 dc 3d
       0.05522735 0.15171765 0.13144274 0.10763642
000070 48 75 0d 3d 8f 87 74 3c 19 fe 9c 3d 85 88 0d 3e
       0.034535676 0.014924898 0.07665653 0.1382161
000080 19 dc 55 3d dc 52 35 3e 83 e3 f0 3d 5b e8 c0 ba
       0.052211855 0.1770739 0.117621444 -0.0014717685
000090 20 6b 1d 3e bd bb be 3d 92 d7 79 3d bc ac c4 3d
       0.15372896 0.09313152 0.0609966 0.09603259
0000a0 5a 3a 03 bd 47 64 93 3d 2c 3e 47 bb 63 1c c3 3d
       -0.03203807 0.07196861 -0.0030402048 0.09526899
0000b0 d1 e8 e8 ba 39 c9 c4 3d e5 b1 f0 3d 88 ad 67 3d
       -0.001776958 0.09608693 0.11752681 0.056561977
0000c0 b2 06 ad bc 5e 3e 95 3d 4e dd ab 3d a9 42 1d 3e
       -0.021121357 0.07287286 0.0839182 0.1535746
0000d0 28 72 9d 3d 0b bb 28 3d 5d 48 55 3c a0 2c 78 3b
       0.07687789 0.041194003 0.013017741 0.0037868395
0000e0 7e 64 d6 3d 8e 48 f9 3d c3 0b 8c 3d 8d b6 f5 3d
       0.10468386 0.12172042 0.06838181 0.119977094
0000f0 d3 ee f2 3d af bd 79 3d b4 ef 00 3e 6a 37 94 3d
       0.11861958 0.060971912 0.1259144 0.07237132
000100 71 82 8c 3d d8 90 b9 3b 36 06 94 bd 82 05 71 3d
       0.06860817 0.0056630187 -0.07227747 0.058843143
000110 9f 76 12 3e b9 1d 05 3e a6 b2 9e 3d e4 d2 4d 3d
       0.14303063 0.1299962 0.07748918 0.05024995
000120 a0 af fa 3d ef 15 ce 3d 8b 38 5f bd ea 6d e8 3c
       0.12240529 0.10062777 -0.054497283 0.028372724
000130 a7 56 8a 3d 58 71 cd 3d ee 26 63 3d 5a 22 39 3e
       0.06754809 0.10031384 0.055457048 0.1807951
000140 ec c3 14 3e 19 81 9f bc a8 37 ad 3d da b7 6f 3c
       0.14527863 -0.019470738 0.08457881 0.014631236
000150 41 b8 af 3d bd 05 f2 3d d2 73 f2 3b de dd f7 3d
       0.085800655 0.11817501 0.0073990608 0.12102865
000160 19 1a d6 3d a2 8f 07 3d 5e 7a b9 3d a7 80 90 bc
       0.104541965 0.033095963 0.09056543 -0.017639471
000170 ed 02 28 3d 8d b5 46 3e c3 57 01 bd 87 75 ae 3d
       0.041018415 0.19405194 -0.031577837 0.0851851
000180 7a 72 d8 3d c7 b2 27 3e c5 f6 60 3d d9 d4 8d bd
       0.1056871 0.16376792 0.054922838 -0.06925363
000190 79 e5 20 3d 13 88 d6 3d 69 a1 d5 3c dd d5 a3 3d
       0.039281342 0.10475173 0.026077943 0.079997756
0001a0 31 d8 03 3e 0e 45 ca 3d c7 ab 9c 3d 9d 66 53 3c
       0.12875439 0.098764524 0.076499514 0.012902883
0001b0 ca 7f c2 bc 3c 3b 1f 3d 0b 14 d3 3d 72 b7 3b bc
       -0.023742575 0.03887485 0.10306557 -0.011457311
0001c0 11 8a 9f bd c4 59 80 3d e7 36 7a bd 26 0f 36 3e
       -0.07790006 0.062671214 -0.061087515 0.17779216
0001d0 37 a0 39 3d 46 86 17 3e b3 38 fb 3d e5 ea 06 3e
       0.04531881 0.14797315 0.12266674 0.13175543
0001e0 86 20 c0 bb 7d 71 7a 3d 2d 86 28 3e 34 46 04 3e
       -0.005863252 0.061143387 0.16457434 0.12917405
0001f0 25 44 4c bd 89 01 e9 3d af 16 b2 3c 1c b6 aa 3d
       -0.049869675 0.11377246 0.021739332 0.08335516
000200 18 2c ac bc dc 37 32 3d 2d 3a 77 3d 3c 7e 80 bb
       -0.02101712 0.043510303 0.060358215 -0.0039212983
000210 78 57 18 3e e2 a1 ce bc ec 56 fb 3d f0 a0 64 3d
       0.14877117 -0.025223676 0.122724384 0.055817544
000220 0b a1 86 3c 55 f3 72 3d ec 86 dc 3b 89 e1 f5 3d
       0.016434213 0.05931409 0.006729951 0.12005908
000230 e2 b6 6f 3d 32 74 03 bb 76 d1 36 bd 16 0e f8 3d
       0.05852402 -0.0020058271 -0.04463335 0.12112062
000240 03 25 11 3d 84 d1 5c bd 50 a4 8f 3d 1b c3 b8 3d
       0.035435688 -0.053910747 0.07013762 0.090215884
000250 32 cb 3c 3e b2 90 19 3e f3 6d 4e 3d 93 0c 16 be
       0.18436888 0.14996603 0.050397824 -0.14653234
000260 64 ea 19 3e fb 35 ed 3d d7 f6 16 3e 7b 5a 30 bd
       0.15030819 0.115825616 0.147426 -0.04305504
000270 24 ed 36 bd 90 12 cc 3d 07 ce 20 3e f1 a3 3c 3c
       -0.04465975 0.09964478 0.15703593 0.011513696
000280 f1 5b 3a 3e af d8 84 3c 77 f3 f9 3d e6 62 a8 3d
       0.18199135 0.016216604 0.1220464 0.082219884
000290 76 2d cb bc 2d 52 b8 3d 24 d4 bd 3d 77 4a 13 3e
       -0.02480195 0.09000049 0.09268978 0.14383875
0002a0 9c d9 fd bc ff 4f dc 3d 56 12 8c 3d ef 54 9d 3d
       -0.030987553 0.107574455 0.06839435 0.076822154
0002b0 e6 64 69 3d 24 e3 76 3b 7f 4d 9c 3d 96 4d bc 3d
       0.05698099 0.0037672007 0.07631969 0.09194486
0002c0 2c 64 5c bd 0f 16 37 3e 33 76 c6 3d 7f 1d 02 3e
       -0.05380647 0.17879508 0.096905135 0.12706564

fc2.weight f4 [1, 180]
000000 21 f1 0e be da 90 3b be d7 9c 44 be 6f e0 12 be
       -0.13959171 -0.18316975 -0.19200455 -0.14343427
000010 e4 bb c7 bd 57 96 1c be 47 c4 1f 3e 9c ec 51 3e
       -0.09752634 -0.15291725 0.15602218 0.20500416
000020 64 59 65 3e 40 1d 31 3e 5e 5d 45 be 85 7a 88 3e
       0.22397381 0.17296314 -0.19273898 0.26655975
000030 65 01 4f 3e 93 f1 2a be b8 b0 18 be cd 10 39 3e
       0.20215376 -0.16693716 -0.14911163 0.18072815
000040 ef 4e 3a be 57 97 b0 bd 46 b7 fd 3d b1 a6 47 3e
       -0.18194173 -0.08622616 0.12388472 0.19497181
000050 f3 ab 53 be 27 32 15 be 24 16 31 be be f3 0f be
       -0.20671062 -0.14569913 -0.17293602 -0.14057824
000060 e9 a4 41 3e 26 a9 56 3e f8 5b 04 be 51 d1 43 be
       0.18910564 0.20962963 -0.12925708 -0.19122817
000070 a0 19 21 3e ed 9f 1b be af 4b 2f 3e 6d 79 0e be
       0.15732431 -0.15197726 0.17118715 -0.13913508
000080 e4 92 5e 3e 86 ba 2b be 86 2c 07 be 65 12 88 be
       0.21735722 -0.16770372 -0.13200578 -0.26576534
000090 04 34 66 3e c0 7c 12 be b0 a3 33 be 50 2f 18 be
       0.2248078 -0.14305401 -0.1754291 -0.14861798
0000a0 38 fa 9a 3e e0 82 c9 bd ba 48 f2 bd b1 d7 f5 bd
       0.30269027 -0.098394156 -0.11830278 -0.120040305
0000b0 d0 5b f6 bd dc 5f 0c be 9a 6a 3b be 15 91 31 be
       -0.120292306 -0.13708442 -0.18302384 -0.173405
0000c0 3a a6 66 be ac ed fd bd fd fe 2d 3e 20 18 29 3e
       -0.22524348 -0.12398848 0.16991802 0.16513109
0000d0 82 c2 f7 bd b8 6f 30 3e 12 59 25 3e 63 f9 1c be
       -0.12097646 0.17230117 0.16147259 -0.15329508
0000e0 57 93 29 be 14 59 38 be 0a dc 5f 3e d5 b2 39 be
       -0.16560112 -0.1800273 0.21861282 -0.18134625
0000f0 23 04 3b be 13 0c 3e be 31 0a 3f 3e 09 34 16 be
       -0.18263297 -0.18559293 0.18656231 -0.14668287
000100 c7 b7 43 be 49 85 85 be a5 1e 26 3e de e2 1a 3e
       -0.19113074 -0.2607825 0.16222627 0.15125605
000110 c3 9e 5e 3e 30 5e 08 be 3e 59 89 be 1d 35 0e 3e
       0.2174025 -0.1331718 -0.268259 0.13887449
000120 1c 0f 0f be 40 cf 33 be 5a 19 ab 3e 51 46 05 be
       -0.13970608 -0.17559528 0.3341778 -0.13015105
000130 f5 cd d9 bd f6 5e 2d 3e f4 6f 1e be 38 5e 4e 3e
       -0.10634986 0.16930756 -0.15472394 0.20153129
000140 20 fe 26 be e7 67 8d 3e b9 98 4f be 0c ac 26 be
       -0.16307878 0.27618334 -0.20273103 -0.16276568
000150 fc b9 19 be 34 77 56 3e b9 99 d6 bd 2d a7 01 be
       -0.15012354 0.2094391 -0.10478539 -0.12661429
000160 51 62 2b 3e df f4 97 be c4 12 48 3e 0d d3 b2 be
       0.16736723 -0.2967901 0.19538409 -0.34926644
000170 8f cb 0c be e8 50 36 be 37 90 cf bd e6 ac fc bd
       -0.13749526 -0.17804301 -0.10134929 -0.12337665
000180 83 ba 3f 3e a2 b9 2e be 24 5a f7 bd 98 a3 17 3e
       0.18723492 -0.17063001 -0.1207774 0.148085
000190 79 b2 c8 3d 0e d4 28 3e ba 02 ec bd 91 57 1b 3e
       0.09799666 0.16487142 -0.115239576 0.15170123
0001a0 69 3c 49 3e 13 b4 35 3e b3 16 4e 3e 1a dc 5c be
       0.19651951 0.17744474 0.20125847 -0.21568337
0001b0 f7 b8 98 be 30 61 1b be 4e e8 40 be 2a 1e 05 3e
       -0.29828617 -0.15173793 -0.18838617 0.12999788
0001c0 97 92 9c 3e 1b 03 41 3e c6 c6 72 bd ba c0 50 be
       0.3058059 0.18848841 -0.059271596 -0.2038602
0001d0 48 d4 4c bd 29 3e 66 3e 23 cc 28 3e 57 ab 42 be
       -0.050007135 0.2248465 0.16484122 -0.19010673
0001e0 b4 75 7a 3e fc 17 1b be f1 6d f6 bd 6e e2 13 be
       0.24458963 -0.15145868 -0.120326884 -0.14441845
0001f0 b5 c1 20 be 79 23 21 3e 02 cf 0e 3e 27 e2 2a 3e
       -0.15698893 0.15736188 0.13946155 0.16687833
000200 ea 29 20 3e 20 dc 11 be 3d 36 42 be c8 05 53 3e
       0.15640989 -0.14244127 -0.18966003 0.20607674
000210 73 88 58 3e 69 a2 1e be 9b ec 08 be 17 fd 09 be
       0.21145801 -0.15491642 -0.13371508 -0.13475452
000220 ff c5 5c be 01 3d 20 3e d5 46 3b be 81 5d 3b 3e
       -0.21559905 0.15648271 -0.18288739 0.18297388
000230 ac 1f 34 be b4 aa 4a 3e 0c bb 22 3e 25 41 3a be
       -0.17590207 0.1979168 0.15891665 -0.18188913
000240 ab 88 19 be 1e 38 0e 3e 44 68 43 be c1 5c 01 be
       -0.14993541 0.13888595 -0.19082743 -0.12633039
000250 a5 58 6f 3e 32 c6 27 be a2 ed 11 be df a4 48 bd
       0.23373659 -0.163842 -0.14250806 -0.04898536
000260 29 31 1d be 63 1f 23 3e 3a 2e 2e 3e 6d 94 f3 bd
       -0.15350784 0.15929942 0.17009822 -0.11893544
000270 bb 08 22 be 37 93 34 3e 21 99 4f be cc 5a 3e 3e
       -0.15823643 0.17634283 -0.20273258 0.18589324
000280 c7 ca 28 be 93 0b 11 be cd 4d 06 be cb f0 11 3e
       -0.16483603 -0.14164571 -0.13115616 0.14252011
000290 7f 08 03 be 64 fe 0d be 27 5f 3a be cc c0 30 be
       -0.1279621 -0.13866574 -0.1820036 -0.17261046
0002a0 62 66 8f be 78 5c 38 3e 52 68 28 be 2d c7 58 be
       -0.280078 0.18004024 -0.16446045 -0.2116973
0002b0 18 54 3c be 1a c6 16 be 09 e3 5a be d9 67 59 3e
       -0.18391454 -0.14724007 -0.2137567 0.21231021
0002c0 9c 9a ba 3e 84 de 53 3e 26 82 20 be 3e ea 1d 3e
       0.36446083 0.20690352 -0.15674648 0.15421388

exp_avg f4 [180, 180]
000000 50 b5 3e 38 20 8c 76 35 00 7b 3d 37 9b 14 a7 37
       4.546839e-05 9.184605e-07 1.1293916e-05 1.9917547e-05
000010 24 52 1c 39 80 76 c9 36 af fd 51 b7 f4 21 7d 37
       0.00014907919 6.004062e-06 -1.2516436e-05 1.50878805e-05
000020 1e 8b 06 b7 fa ad 1f 38 2d d8 5e b5 61 2d ce b6
       -8.019413e-06 3.8070582e-05 -8.301602e-07 -6.144561e-06
000030 8f 12 10 b7 f7 39 db b6 a4 77 d8 37 85 d0 f1 37
       -8.58739e-06 -6.5334566e-06 2.5804919e-05 2.8826538e-05
000040 6e ab 73 b8 db 2e 77 b8 a5 77 a1 37 3a a8 dd b7
       -5.809537e-05 -5.8933027e-05 1.924841e-05 -2.642359e-05
000050 6f f2 9e b7 e1 0c 36 b6 aa 28 5b 37 0b 76 f5 36
       -1.894796e-05 -2.712761e-06 1.3062885e-05 7.315311e-06
000060 a6 4d b5 36 b4 5a b3 37 f3 e1 d7 b6 ba 41 dc 37
       5.40326e-06 2.13807e-05 -6.4338033e-06 2.625665e-05
000070 09 1f 54 b7 4d 90 ea b7 b7 7b 8e b7 72 02 55 b6
       -1.2643411e-05 -2.7962169e-05 -1.6985328e-05 -3.1740897e-06
000080 f6 3c 53 b7 15 f8 da b5 d2 69 e2 b6 41 65 9f 37
       -1.2590774e-05 -1.6314467e-06 -6.747644e-06 1.9001427e-05
000090 4d 65 b8 b6 e5 2f 42 39 23 b2 ec b4 bd d0 45 37
       -5.4954203e-06 0.00018519124 -4.4088037e-07 1.1790716e-05
0000a0 e6 d1 8e 37 87 b2 a3 36 89 1d 80 b7 2c 53 c4 b7
       1.702546e-05 4.878562e-06 -1.5272542e-05 -2.340375e-05
0000b0 3f c9 e3 b7 ee 53 a7 37 ef f5 05 36 ef d0 20 39
       -2.7154221e-05 1.9947034e-05 1.9961697e-06 0.00015336623
0000c0 99 8d ce 37 05 bc 0f 36 6d b6 5d b7 57 e1 5d b8
       2.462305e-05 2.1418102e-06 -1.3215101e-05 -5.290037e-05
0000d0 a0 d8 c4 b7 7e ac bb 37 78 78 e7 b6 e2 68 94 37
       -2.3465895e-05 2.237246e-05 -6.898361e-06 1.7691815e-05
0000e0 20 9b dc 37 fd 23 55 38 06 1e a4 b6 2d 9f ab b4
       2.629828e-05 5.0816674e-05 -4.891076e-06 -3.1967048e-07
0000f0 66 bb 9d b6 04 ea 88 36 09 d6 8e 37 40 11 b2 35
       -4.7007807e-06 4.080359e-06 1.7027387e-05 1.3267054e-06
000100 2a b3 78 37 ee f5 39 b5 27 aa b6 35 00 a1 cf 36
       1.4823667e-05 -6.9275745e-07 1.3609578e-06 6.1878236e-06
000110 20 01 c5 35 ff 46 b4 b6 21 88 9e b6 95 28 00 b7
       1.4677971e-06 -5.372683e-06 -4.7246144e-06 -7.638843e-06
000120 d8 23 97 b6 a7 cf 34 38 c5 39 12 39 c2 f7 0b b8
       -4.5043234e-06 4.3108736e-05 0.00013945166 -3.3370925e-05
000130 13 11 42 b7 86 e9 4c 36 de 1b a1 35 31 1d 5c 37
       -1.15672765e-05 3.0534297e-06 1.2003545e-06 1.31198185e-05
000140 21 60 48 38 5d 1c 04 b8 25 14 8b 38 1e 89 fb b6
       4.7773243e-05 -3.1497668e-05 6.631789e-05 -7.4963455e-06
000150 01 d2 1a b8 24 ce 00 b7 9a 38 65 37 a4 a0 a9 36
       -3.6912043e-05 -7.67739e-06 1.3662642e-05 5.0552935e-06
000160 4d 9e cf 37 43 ea 21 b7 61 18 1a 37 8d 79 96 38
       2.4750037e-05 -9.650891e-06 9.184791e-06 7.175198e-05
000170 6b f3 50 37 9d 37 e5 b5 69 f5 89 b7 4c fa 3d b7
       1.2454441e-05 -1.7078015e-06 -1.644595e-05 -1.1323555e-05
000180 d4 5b 5c 37 e5 3f a3 35 e4 d0 df 37 1f 81 92 36
       1.3134402e-05 1.2163042e-06 2.6680944e-05 4.3661707e-06
000190 19 fc fe b7 4c e1 55 b7 20 e4 62 b6 e7 12 91 b7
       -3.0396552e-05 -1.2748245e-05 -3.380941e-06 -1.7294149e-05
0001a0 81 f2 5f 36 dc 42 c0 b6 ab 62 42 37 1b 54 35 39
       3.3370745e-06 -5.7298294e-06 1.1586274e-05 0.00017292837
0001b0 7b 55 a4 b5 cf 88 d5 38 23 9a 9f 36 50 7f 05 b7
       -1.224383e-06 0.00010182114 4.756513e-06 -7.95706e-06
0001c0 44 f3 1b 37 09 b7 ff b6 c8 97 8c 37 4e fe 83 b7
       9.29536e-06 -7.6209003e-06 1.675998e-05 -1.5734837e-05
0001d0 8a 28 1d 37 ac dd 62 b8 5d 70 38 b6 8c c7 35 36
       9.367368e-06 -5.4089047e-05 -2.748354e-06 2.7087253e-06
0001e0 fd fe a4 38 07 23 8b 36 b3 93 c2 b7 b3 26 91 37
       7.867625e-05 4.1466005e-06 -2.319538e-05 1.7303368e-05
0001f0 29 54 90 b7 61 81 c9 36 dc 12 ed 36 2b 92 46 b7
       -1.7205328e-05 6.0053285e-06 7.065346e-06 -1.1835752e-05
000200 b7 44 02 37 1d 55 67 b7 87 87 8a b7 34 16 51 b7
       7.764603e-06 -1.378849e-05 -1.6513992e-05 -1.246254e-05
000210 08 44 1e b7 f8 2c bb b7 ae de d0 35 94 61 4d 38
       -9.433374e-06 -2.2313077e-05 1.5562016e-06 4.8966685e-05
000220 c5 1f 80 b7 f0 7b 12 39 92 38 6d b6 2f 64 06 37
       -1.5273583e-05 0.00013969815 -3.534868e-06 8.010348e-06
000230 2a be 2e 38 62 bd 16 36 5c 54 f0 b7 26 cc f3 38
       4.1661937e-05 2.2461977e-06 -2.8649512e-05 0.000116251686
000240 94 63 44 36 95 bb 0b b8 0b ff 3a 37 72 78 4e b6
       2.9264238e-06 -3.3314882e-05 1.1145846e-05 -3.07665e-06
000250 37 ec 62 38 60 7c 53 b6 2e 6c 02 b7 fb 73 60 b7
       5.410259e-05 -3.1513846e-06 -7.773791e-06 -1.3378444e-05
000260 d6 15 c7 37 89 4c ad b7 fa 23 09 37 f5 ac 1e 38
       2.3732817e-05 -2.0658847e-05 8.174213e-06 3.7831214e-05
000270 0d d0 ff 37 87 96 13 b8 94 ea 2b b7 0e fc 07 35
       3.049525e-05 -3.518772e-05 -1.0247011e-05 5.0658207e-07
000280 2e dd 7d 39 ac 55 31 b7 0b 85 e6 36 6b 06 59 b6
       0.00024210356 -1.0569969e-05 6.8700224e-06 -3.2339256e-06
000290 cf d6 1c b6 d2 32 a7 b6 bb 03 f0 b5 c1 53 08 37
       -2.3370847e-06 -4.982904e-06 -1.7882479e-06 8.125732e-06
0002a0 3b 56 3a b8 60 3f 87 b6 23 ef 22 36 a9 29 b9 b6
       -4.4426164e-05 -4.0306913e-06 2.4279077e-06 -5.5182795e-06
0002b0 5f 28 a6 36 62 c7 96 b5 59 bf 72 b7 6a 15 1d 38
       4.9518853e-06 -1.1233899e-06 -1.4468876e-05 3.745166e-05
0002c0 9b f5 36 b7 3e 9b ad b7 cc 1a 8c b5 b0 be 54 b6
       -1.090523e-05 -2.0695497e-05 -1.0438612e-06 -3.1701456e-06
0002d0 ea 9f cd b6 77 4e c2 b3 e5 a1 d2 b4 24 64 bf 36
       -6.1280925e-06 -9.048102e-08 -3.9233342e-07 5.7039015e-06
0002e0 86 cf ac b7 1a 13 24 b7 a4 46 a6 b6 86 79 73 37
       -2.0600633e-05 -9.779609e-06 -4.955409e-06 1.4512223e-05
0002f0 1e a0 9c 36 26 94 5f b8 4e 60 a1 b6 51 49 ed b6
       4.6678024e-06 -5.3305317e-05 -4.8093852e-06 -7.0716856e-06
000300 c2 1a 24 b4 43 0f 8d 35 dc b0 94 37 c2 42 df b6
       -1.5283425e-07 1.050976e-06 1.7725331e-05 -6.6536895e-06
000310 95 fb 6a b7 84 8b e6 36 fa 70 0d b5 2a 40 f2 36
       -1.4006063e-05 6.870776e-06 -5.2690996e-07 7.2196317e-06
000320 d4 27 af b7 2f 1c 07 b5 14 35 21 b7 53 9d 41 37
       -2.0880172e-05 -5.033243e-07 -9.608706e-06 1.1540326e-05
000330 03 63 f2 36 8a c0 97 37 97 b6 8d b4 18 2b 1f b6
       7.2236885e-06 1.809026e-05 -2.6396148e-07 -2.371793e-06
000340 2e f7 2c b7 bb 35 07 b8 ee 32 bb b7 80 89 c9 b5
       -1.030955e-05 -3.223655e-05 -2.2315853e-05 -1.5015685e-06
000350 80 0f 22 b7 3a e1 1d b7 1b ec c8 b4 a8 f7 8e 37
       -9.659561e-06 -9.410369e-06 -3.7424692e-07 1.7043043e-05
000360 0a 16 f7 b7 ce 19 4f 36 f8 57 92 b4 c4 00 b4 37
       -2.9454957e-05 3.0860424e-06 -2.7258625e-07 2.1458029e-05
000370 8d 18 1f b8 59 b4 4f b7 e9 ae f3 35 c5 02 b7 37
       -3.793142e-05 -1.2380152e-05 1.8155816e-06 2.181659e-05
000380 b9 c9 25 37 ad 68 28 b8 f7 16 54 34 c6 1d fa 36
       9.881734e-06 -4.015181e-05 1.9752393e-07 7.4540467e-06
000390 61 ab 97 36 32 03 7f b7 05 be 07 b7 d7 05 c2 b7
       4.520102e-06 -1.5199928e-05 -8.090869e-06 -2.3129322e-05
0003a0 91 45 1b 37 43 b8 f3 36 07 52 52 36 2b 40 a1 37
       9.254917e-06 7.2634152e-06 3.1340185e-06 1.9222576e-05
0003b0 f1 bf 26 b7 8b a8 ee b6 bf 4e 95 b3 5c 7b ab b5
       -9.939061e-06 -7.1125737e-06 -6.952677e-08 -1.2776395e-06
0003c0 de c8 52 b8 d4 35 84 b6 24 d3 6f b7 4f 5a 14 38
       -5.0254974e-05 -3.940173e-06 -1.429467e-05 3.5370056e-05
0003d0 14 38 c2 35 e2 32 ab b6 0c fb 25 b6 43 ee 3e b7
       1.4470447e-06 -5.1021207e-06 -2.4733044e-06 -1.1380357e-05
0003e0 6f b0 87 36 6c b8 53 b7 db 8b f3 b3 4a 9a b0 37
       4.043853e-06 -1.2619519e-05 -1.1341009e-07 2.1052681e-05
0003f0 41 31 f1 37 72 6b 03 b7 39 8d d6 b6 c2 4f cb b7
       2.8752374e-05 -7.833225e-06 -6.3941375e-06 -2.4236626e-05

exp_avg_sq f4 [180, 180]
000000 d9 4d ef 31 9f 44 2b 2f 69 fb 92 30 c6 8d f7 30
       6.9646657e-09 1.5576739e-10 1.0694353e-09 1.801191e-09
000010 55 8d d7 31 2a e0 31 31 80 dd af 2f 9b cf 38 31
       6.273391e-09 2.5884312e-09 3.19897e-10 2.6893534e-09
000020 04 bf 4e 31 af 2c 54 32 15 d2 33 2f c8 d4 b9 2f
       3.0085525e-09 1.2350184e-08 1.6354591e-10 3.3802494e-10
000030 f2 d1 20 30 93 0a 8b 30 3b 13 ad 31 df 5e c1 31
       5.850601e-10 1.0116586e-09 5.037149e-09 5.627825e-09
000040 d2 ac eb 31 99 02 21 32 5a dd b8 30 3c c7 96 30
       6.8590476e-09 9.372024e-09 1.3450674e-09 1.0970562e-09
000050 60 f7 5f 31 b7 03 9d 2f a9 41 1c 31 37 4a d5 30
       3.2591387e-09 2.8560773e-10 2.2738311e-09 1.5518883e-09
000060 63 9f bd 30 67 d0 c1 30 0f 68 09 2f df 19 ac 31
       1.379686e-09 1.410183e-09 1.2497046e-10 5.0088e-09
000070 5c 14 53 30 46 c3 30 33 bc 55 37 32 5e a0 b5 2f
       7.6790285e-10 4.1155793e-08 1.0671496e-08 3.3037656e-10
000080 e5 97 e9 2f 1a 2d df 30 57 14 19 30 cf 95 90 31
       4.249038e-10 1.6238204e-09 5.568998e-10 4.207983e-09
000090 ff 2c 27 31 93 4d a9 31 c3 bb b1 2d 89 c7 3f 31
       2.4327276e-09 4.9273665e-09 2.0205953e-11 2.790758e-09
0000a0 a1 2b d9 31 88 d9 6d 30 9c b2 ed 30 30 ec 9f 31
       6.3204912e-09 8.652923e-10 1.7294783e-09 4.6543605e-09
0000b0 dd 61 4f 31 e2 48 59 32 09 f2 9f 30 16 5f d8 31
       3.0178093e-09 1.2647634e-08 1.1637563e-09 6.2972374e-09
0000c0 a7 eb 0d 31 97 ea 92 31 ac 9c 92 2f 7b 3f e7 31
       2.0652153e-09 4.275829e-09 2.6668567e-10 6.7302017e-09
0000d0 fc 1b 44 31 c0 3d 00 31 33 fd c2 31 55 34 1b 32
       2.8537661e-09 1.8661552e-09 5.6749285e-09 9.034086e-09
0000e0 65 21 9c 30 12 ff 6d 30 3a bf 0c 2f 16 96 78 30
       1.1359985e-09 8.6582574e-10 1.2800863e-10 9.043516e-10
0000f0 70 48 1b 32 43 2b a3 30 b3 c5 f5 31 31 a9 dc 31
       9.038658e-09 1.1872107e-09 7.1529143e-09 6.4220775e-09
000100 32 b9 cf 30 74 4a 21 31 fc cf 8f 30 22 f3 ae 30
       1.5113868e-09 2.3470905e-09 1.0463732e-09 1.2729269e-09
000110 e7 54 7d 31 7f 71 2d 31 ed 8d 83 2e 9f 3d fa 30
       3.6864607e-09 2.5239328e-09 5.9824014e-11 1.8207408e-09
000120 2f 85 0d 32 f0 04 6e 31 a6 87 aa 31 96 04 b2 31
       8.237563e-09 3.4636365e-09 4.9630726e-09 5.181003e-09
000130 4e 7c bf 31 c3 cf 06 30 fc 7e 03 2f 66 8e 8b 30
       5.5729634e-09 4.9044163e-10 1.1959495e-10 1.0154053e-09
000140 99 9d ae 31 f0 42 85 30 2d 9c af 31 f2 12 3a 31
       5.0819833e-09 9.696048e-10 5.1109255e-09 2.7077331e-09
000150 3c f5 f2 30 ee 85 4c 31 86 c0 04 31 14 10 80 31
       1.7677517e-09 2.9762037e-09 1.9317965e-09 3.727118e-09
000160 c6 e0 2b 31 10 ca 5f 32 e4 2f e7 2f 39 65 d8 31
       2.5011544e-09 1.3026252e-08 4.2052684e-10 6.297935e-09
000170 10 d1 c9 30 76 f4 96 30 8d 03 83 31 1d 16 15 31
       1.4684094e-09 1.0983416e-09 3.8130055e-09 2.1694924e-09
000180 62 b1 01 31 1e 66 3d 31 fb c0 8d 30 aa 53 3a 30
       1.88728e-09 2.7561167e-09 1.0313949e-09 6.77853e-10
000190 a2 db 45 31 f9 53 ca 30 05 3b 0f 31 fd 75 ee 30
       2.879212e-09 1.4721301e-09 2.0842787e-09 1.7350313e-09
0001a0 07 22 50 30 99 99 e6 2f 76 45 ec 30 78 f5 29 32
       7.5718315e-10 4.1945894e-10 1.7191002e-09 9.892908e-09
0001b0 c2 60 64 31 a7 6e 51 32 40 3c e2 2f 7a 02 28 31
       3.3233367e-09 1.2190561e-08 4.115197e-10 2.4448625e-09
0001c0 98 4b d4 31 b9 bd b6 2f 32 32 3a 31 01 9e 4a 31
       6.178606e-09 3.3240413e-10 2.7095095e-09 2.9484684e-09
0001d0 21 93 93 30 fc e8 40 32 00 c0 03 2f 00 4a 6e 2f
       1.0737474e-09 1.1228845e-08 1.1982593e-10 2.1672264e-10
0001e0 b3 c7 a8 31 b3 d8 e9 2f 9d dc 87 31 ac 56 1e 32
       4.9121467e-09 4.2536427e-10 3.954098e-09 9.216517e-09
0001f0 b7 17 8b 31 e4 ae 2a 31 0d 9b c3 30 7a 7c 7e 30
       4.0481285e-09 2.483767e-09 1.4232185e-09 9.2581554e-10
000200 a0 d2 59 31 96 89 05 31 05 4d 48 30 c0 e8 08 32
       3.1697382e-09 1.9432256e-09 7.286903e-10 7.969163e-09
000210 f7 85 0b 31 9c 28 bd 31 53 cd 99 30 bb 78 7f 31
       2.0303312e-09 5.5052407e-09 1.1190572e-09 3.7176011e-09
000220 f3 df 15 31 02 6e ad 31 60 51 07 2f af f6 36 31
       2.1809654e-09 5.047469e-09 1.2307089e-10 2.662471e-09
000230 76 fe 40 32 71 5b 63 30 e1 2f 7d 30 2f 2b 03 32
       1.1233729e-08 8.2712065e-10 9.2108904e-10 7.635022e-09
000240 33 f9 ba 30 7f 02 fd 30 75 05 b4 30 ef f9 b2 2f
       1.3604108e-09 1.8408882e-09 1.3098275e-09 3.25556e-10
000250 80 10 b7 31 7a d4 05 32 20 d9 e5 30 a1 10 80 31
       5.327877e-09 7.7899305e-09 1.6723654e-09 3.727181e-09
000260 ce 05 14 31 25 35 49 31 5d 94 ac 30 c2 d8 6a 31
       2.1540134e-09 2.9279559e-09 1.2556814e-09 3.4174694e-09
000270 66 0e de 31 16 db c3 31 dc d9 23 2f 08 50 f2 2f
       6.4626873e-09 5.700154e-09 1.4902163e-10 4.407641e-10
000280 0f 3b 84 32 4f ab 4a 30 c3 5c a2 30 cc 7a 36 30
       1.539368e-08 7.3730616e-10 1.1813416e-09 6.638572e-10
000290 b6 8d 9c 2f e5 32 90 30 ad 66 07 2f ff 5a e9 31
       2.8476926e-10 1.0491844e-09 1.2314656e-10 6.7915376e-09
0002a0 4d 27 85 31 70 ab 3b 33 12 58 4a 2f a3 24 c6 2f
       3.8752774e-09 4.3695252e-08 1.8403082e-10 3.6042022e-10
0002b0 e3 53 59 30 c6 f3 a5 2f 57 55 4c 30 c5 b5 11 31
       7.906335e-10 3.0186537e-10 7.4336043e-10 2.12036e-09
0002c0 75 2b 88 30 4e d8 4b 32 65 74 18 2e 7e 40 f6 2e
       9.907654e-10 1.1865337e-08 3.4664178e-11 1.1198241e-10
0002d0 58 7a a4 30 5c 64 6c 2d 25 18 b8 2e 37 fc a5 2f
       1.1967343e-09 1.3437331e-11 8.37164e-11 3.0192535e-10
0002e0 bb a5 0b 31 e8 31 bc 2f 86 b0 2d 2f 83 30 96 2f
       2.032137e-09 3.423246e-10 1.5796972e-10 2.731931e-10
0002f0 5d 32 38 30 f6 eb 64 30 46 3b be 2d e0 8f a6 2e
       6.701038e-10 8.328124e-10 2.1626822e-11 7.5743634e-11
000300 32 1c b6 2e 88 08 7c 2e 2e b7 d6 2f 0c 8f 64 30
       8.28141e-11 5.7305743e-11 3.905653e-10 8.31492e-10
000310 3e 5b 2c 30 3e f8 3a 2f 11 d0 0e 2e 6e 6e d0 30
       6.27029e-10 1.7004795e-10 3.2471862e-11 1.5165378e-09
000320 e9 1a 0f 2f 9d db d3 2d e1 82 4e 2f 1c 98 48 2f
       1.3015335e-10 2.408545e-11 1.8782088e-10 1.8243934e-10
000330 db 99 2f 2e 99 5c 1e 30 35 6f b2 2d e7 cf 8d 2f
       3.9927044e-11 5.7611654e-10 2.0285643e-11 2.5795474e-10
000340 54 ea 4f 30 51 55 b9 33 9d c7 89 2f 91 4d 90 2f
       7.563916e-10 8.630253e-08 2.5061989e-10 2.6248562e-10
000350 d2 14 ee 2f 9a f6 c3 2e d4 20 2f 2f b7 2e 69 2f
       4.3306742e-10 8.9113786e-11 1.592782e-10 2.1207823e-10
000360 37 88 9b 2f b1 2f aa 2e 18 84 b5 2d 62 01 4a 2f
       2.8291122e-10 7.739177e-11 2.0635979e-11 1.8372284e-10
000370 33 aa e1 31 42 f9 8f 2f 3e df 14 2f d2 2b b7 2f
       6.5677113e-09 2.6188657e-10 1.3539833e-10 3.3318642e-10
000380 2d a4 4a 2f 0d 27 8a 30 bb c7 87 2f 42 b3 ba 2f
       1.843012e-10 1.005192e-09 2.4698274e-10 3.3960573e-10
000390 66 1b 86 2f 97 b7 1b 2f 17 45 d9 2e e0 ae d8 2f
       2.4393926e-10 1.4162392e-10 9.88029e-11 3.9414427e-10
0003a0 96 1c 37 2f b9 9c 01 2f fa 9a a9 2f 03 aa 23 32
       1.6653909e-10 1.1788161e-10 3.0851038e-10 9.526505e-09
0003b0 f4 33 ab 2e e7 10 81 2f 1c ff 9a 2c bc 71 09 2e
       7.7854084e-11 2.3476973e-10 4.405266e-12 3.125121e-11
0003c0 09 90 06 30 14 f3 09 2f 44 68 50 31 ae af 3e 32
       4.89536e-10 1.2546436e-10 3.0327252e-09 1.10994005e-08
0003d0 2a de d7 2e 50 91 36 2f 21 2b 83 2e 4e 9e a6 2f
       9.816532e-11 1.6604429e-10 5.9648515e-11 3.0307706e-10
0003e0 ef 40 17 30 3e ff a8 2f 11 63 b7 2e fa 89 3d 2f
       5.5025756e-10 3.0740382e-10 8.339474e-11 1.7238469e-10
0003f0 38 51 0e 30 1b 06 1b 2f 43 44 24 2f b3 98 8c 30
       5.177472e-10 1.4099337e-10 1.4939965e-10 1.022974e-09

exp_avg f4 [180]
000000 31 12 36 39 7a 50 94 b8 89 27 4a 39 b2 34 21 39
       0.0001736365 -7.07218e-05 0.00019278949 0.00015373787
000010 b2 33 25 39 53 ee 5b 39 fa 15 33 37 a4 d6 af b8
       0.00015754884 0.0002097425 1.0674348e-05 -8.38463e-05
000020 28 55 73 b9 f9 b5 c1 b8 06 a1 96 39 86 43 0d b9
       -0.00023206009 -9.236852e-05 0.000287302 -0.00013471962
000030 83 8f 97 b9 0e 06 9a 39 df 08 62 39 d1 47 21 b8
       -0.0002890789 0.0002937768 0.00021556344 -3.8452275e-05
000040 46 5c aa 39 93 c6 e6 38 ff 57 fb b8 48 52 d9 b8
       0.00032493676 0.00011004242 -0.00011985003 -0.000103626924
000050 5e aa 71 39 d7 a8 86 39 03 7f 8e 39 c8 ec 48 39
       0.00023047018 0.00025684267 0.00027178982 0.00019161694
000060 31 8e 5c b9 c3 ab 7f b9 39 66 78 39 6a b7 79 39
       -0.00021033805 -0.00024382681 0.00023689204 0.00023814818
000070 db c6 ab b8 39 e8 92 39 9e 8f d7 37 73 04 6a 39
       -8.190955e-05 0.0002802031 2.5696874e-05 0.00022317636
000080 41 4f 53 b9 b9 47 68 39 2d 9b 44 39 ca ac 96 38
       -0.00020152052 0.00022151963 0.00018749824 7.184742e-05
000090 7e 38 4e b9 08 24 73 39 88 f7 f7 b8 27 2a 76 39
       -0.00019666736 0.00023187709 -0.00011823984 0.00023476091
0000a0 9e 90 20 b8 bf 70 93 38 c5 dd ec 38 ef 60 60 38
       -3.8281658e-05 7.030507e-05 0.00011294665 5.3496038e-05
0000b0 52 0a 4b 39 fe a1 58 39 e6 ea 99 39 22 f3 7b 39
       0.00019363433 0.00020659712 0.00029357447 0.000240278
0000c0 42 b1 50 b8 3e b9 5b 39 4e 41 7d b9 da 5c be b8
       -4.975615e-05 0.00020954476 -0.00024152288 -9.077201e-05
0000d0 58 ad c8 38 fb 84 e0 b8 58 ff 69 b8 03 f0 3d 39
       9.569031e-05 -0.00010705922 -5.5789336e-05 0.00018113856
0000e0 dc 68 ca 39 e0 ab 87 39 b4 c7 76 b8 6e 0c 96 39
       0.0003860657 0.00025877263 -5.883696e-05 0.0002861949
0000f0 b0 1f 78 39 7a 22 a2 39 70 57 99 b8 e4 d5 19 39
       0.00023662928 0.00030924735 -7.311895e-05 0.00014670898
000100 61 76 56 39 d2 82 bd 39 bf 10 2d b9 45 77 09 b9
       0.0002045273 0.00036146358 -0.00016504804 -0.0001310977
000110 74 61 ea b8 80 22 0a 39 a6 7a f9 39 95 a4 73 b6
       -0.000111761416 0.00013173558 0.0004758436 -3.630562e-06
000120 8a 00 8a 39 ce 46 a8 38 92 78 06 b9 74 43 64 39
       0.00026321813 8.024053e-05 -0.00012824152 0.00021768903
000130 a6 48 13 39 6e 81 bb b8 c7 12 b7 39 11 5f 79 b9
       0.00014046076 -8.940963e-05 0.0003491847 -0.00023781905
000140 6d fa ab 39 30 a5 a4 b9 ef 1d 83 39 26 56 a3 39
       0.00032802243 -0.00031403592 0.0002500857 0.00031153968
000150 7f 70 7d 39 e9 cc a1 b7 86 fa 21 38 0f f7 16 39
       0.00024169868 -1.9288114e-05 3.861871e-05 0.00014397151
000160 af 9b bd b8 b7 4e 9d b8 87 94 68 36 c9 03 02 b9
       -9.0412206e-05 -7.501005e-05 3.4657148e-06 -0.00012399176
000170 2e 93 55 39 6e cd 58 39 25 cf 89 38 d9 9f 32 39
       0.00020368092 0.00020675894 6.571253e-05 0.0001703495
000180 4e d6 b3 b8 d2 07 3b 39 e8 e0 03 38 da 28 de b7
       -8.5753025e-05 0.00017836623 3.1442294e-05 -2.6483485e-05
000190 12 83 f0 b7 08 19 7a b7 58 8d 3c 39 0b da f0 b8
       -2.8671264e-05 -1.4906989e-05 0.00017981732 -0.000114847055
0001a0 c9 4e fe b8 74 f7 b8 38 5f c6 53 b9 65 2e 1d 39
       -0.00012126339 8.8198954e-05 -0.00020196427 0.0001498997
0001b0 92 07 88 39 e5 34 71 39 a3 99 84 39 f4 a1 f3 b7
       0.00025945582 0.00023003256 0.0002529147 -2.9043273e-05
0001c0 e4 e4 5b b8 ca 78 1f 39 d1 48 ed b5 20 44 88 39
       -5.242684e-05 0.00015208419 -1.7679068e-06 0.00025990698
0001d0 ca 44 e4 38 e0 58 eb b8 b4 79 a3 b8 9d 30 9f 39
       0.000108847 -0.000112222275 -7.795115e-05 0.00030363063
0001e0 03 2f 75 b9 74 cd 5f 39 32 24 23 39 b3 76 c9 39
       -0.00023382534 0.00021343475 0.00015558375 0.00038426145
0001f0 98 03 84 39 45 a8 c8 b8 2f 14 72 b8 d7 4b 2e b9
       0.0002517968 -9.568086e-05 -5.7716094e-05 -0.00016622186
000200 a9 1b 10 b9 43 00 23 39 85 e6 a9 39 8f a0 b4 38
       -0.00013743214 0.00015544989 0.00032405942 8.612975e-05
000210 5e 44 57 b9 36 7e 27 39 3c e6 5d 39 6d f5 0c 39
       -0.00020529467 0.00015973378 0.00021161971 0.00013442869
000220 71 d5 52 39 40 29 11 b8 89 72 3b 39 ff 9f af b8
       0.00020106674 -3.460911e-05 0.00017876377 -8.374452e-05
000230 65 29 a1 38 f8 96 7a 37 49 47 73 b9 56 9b 8d 39
       7.6847886e-05 1.4936311e-05 -0.00023200842 0.0002700935
000240 8a c9 68 39 93 bb 54 36 5a bf 84 39 4e d9 3f 39
       0.00022200323 3.1699644e-06 0.0002531957 0.00018296132
000250 2a d8 86 b9 a3 5c 9d 39 37 7c 4f 39 3e bd 9a 33
       -0.00025719526 0.00030014393 0.00019787332 7.205607e-08
000260 02 8f 80 39 b3 00 4f b8 66 ce 62 b8 44 15 be 37
       0.00024520612 -4.9353297e-05 -5.4074822e-05 2.2659668e-05
000270 fa 13 00 37 c7 48 87 37 61 28 5a 39 c8 9f 1e 38
       7.634046e-06 1.6127144e-05 0.00020805142 3.7818943e-05
000280 74 a7 be 38 f7 dc 3e 39 88 88 08 39 47 e0 d6 b8
       9.0910966e-05 0.00018202128 0.00013020833 -0.0001024609
000290 42 a9 99 38 22 6e 58 39 11 55 5d 39 22 37 73 39
       7.327135e-05 0.00020640393 0.00021107892 0.00023194824
0002a0 9d b9 6f b9 3e 72 64 b9 13 84 6b 37 51 86 8d 39
       -0.00022861962 -0.00021786333 1.4037842e-05 0.0002699369
0002b0 87 92 c1 39 9a 5b db 37 e1 c3 88 39 a1 43 85 39
       0.00036921 2.614949e-05 0.00026085883 0.00025418124
0002c0 60 76 50 b8 67 a0 47 b9 a9 d3 a2 39 48 90 c0 b8
       -4.970131e-05 -0.00019037873 0.00031056747 -9.182148e-05

exp_avg_sq f4 [180]
000000 46 03 15 34 49 c3 52 33 6c 93 db 34 c9 48 2a 34
       1.3877897e-07 4.9072046e-08 4.0899192e-07 1.5858963e-07
000010 69 ac 26 34 4a 35 6c 34 dd c0 50 33 30 08 ae 34
       1.5522677e-07 2.1998599e-07 4.8604182e-08 3.2415983e-07
000020 3a 07 b6 34 15 ce 27 34 e0 ff fc 34 de 9b c5 32
       3.39054e-07 1.5628059e-07 4.712483e-07 2.3004699e-08
000030 f1 c0 99 34 cb 22 91 34 ce 28 4e 34 22 b2 93 34
       2.8638854e-07 2.703367e-07 1.920009e-07 2.7510492e-07
000040 a9 6b b7 34 b4 3b 15 33 fa b7 cb 33 4f c1 bc 33
       3.416474e-07 3.4746066e-08 9.486389e-08 8.789595e-08
000050 a5 8f dc 34 91 00 2b 34 af 9b a0 34 c9 1b 31 34
       4.1082708e-07 1.5925822e-07 2.9915597e-07 1.6494518e-07
000060 a6 65 82 34 8f 8f c8 34 f9 4a 0d 34 9d 2c dc 34
       2.4288346e-07 3.7357356e-07 1.3158923e-07 4.1010654e-07
000070 40 3f 24 34 03 14 73 33 35 00 a5 34 91 e6 6b 34
       1.52967e-07 5.6596047e-08 3.0733796e-07 2.196996e-07
000080 c4 6e 9c 33 c7 ee 82 34 f8 b5 04 34 24 d0 c8 32
       7.284464e-08 2.438812e-07 1.2359658e-07 2.3377716e-08
000090 15 a5 ce 34 91 a3 27 34 c6 a7 81 33 9a 09 94 34
       3.8490603e-07 1.5612592e-07 6.0375484e-08 2.7574134e-07
0000a0 f4 ca 48 33 a3 f0 9f 33 a7 fc d4 32 1c 49 a5 33
       4.6750714e-08 7.447786e-08 2.4794941e-08 7.69671e-08
0000b0 99 61 34 33 19 5b 36 34 b1 6e d0 34 4a b5 47 33
       4.199828e-08 1.6983212e-07 3.8823558e-07 4.649818e-08
0000c0 f1 8e f4 32 31 b3 52 33 b4 c9 0d 34 10 8d fb 33
       2.847034e-08 4.905741e-08 1.3205027e-07 1.17137574e-07
0000d0 6c a4 23 34 69 86 57 34 b4 56 5e 33 81 da 07 34
       1.5240374e-07 2.0072333e-07 5.176726e-08 1.2652346e-07
0000e0 fb 5a a4 34 04 b1 8a 34 d3 39 da 34 99 82 ae 34
       3.0613577e-07 2.58333e-07 4.0647737e-07 3.2505048e-07
0000f0 71 27 d3 34 54 4d d8 34 77 35 4a 34 8f 7c 43 34
       3.933051e-07 4.02894e-07 1.8832166e-07 1.8206104e-07
000100 4c e7 10 35 55 b8 41 33 e4 d8 67 33 7a 5e 10 34
       5.398076e-07 4.5103963e-08 5.398114e-08 1.3445415e-07
000110 a0 ea d9 34 be 7b 01 34 3d 5a f6 32 aa 45 09 34
       4.0590112e-07 1.2059078e-07 2.8679205e-08 1.2784463e-07
000120 78 91 10 34 84 0f 93 34 b0 a6 85 33 60 60 0a 34
       1.3463966e-07 2.7392173e-07 6.2236154e-08 1.2887313e-07
000130 7f ef f6 33 ad b1 74 34 22 02 a0 34 3e f8 8e 34
       1.1498832e-07 2.2788909e-07 2.9803874e-07 2.663018e-07
000140 07 05 aa 34 f1 14 cd 32 21 54 1f 35 84 c1 e2 34
       3.1668625e-07 2.3874664e-08 5.935454e-07 4.2236582e-07
000150 d9 43 57 34 b9 aa 9f 34 9a a6 01 33 8f 31 24 34
       2.0048118e-07 2.9740275e-07 3.0186676e-08 1.529172e-07
000160 47 46 4d 34 b6 31 49 31 be 6d a7 34 b5 6a 2a 33
       1.911768e-07 2.9277607e-09 3.1186022e-07 3.967826e-08
000170 7d 7a 61 34 18 8a ac 34 80 de 50 33 16 ea 1e 34
       2.0999319e-07 3.2137973e-07 4.8631136e-08 1.4800057e-07
000180 8b a3 a6 34 c2 85 89 34 bf 6d 2f 33 bd 5a 47 32
       3.1038903e-07 2.561556e-07 4.0845176e-08 1.1603956e-08
000190 83 5a 89 33 a7 23 1c 34 9c 72 05 34 2b b6 48 34
       6.3960236e-08 1.4541602e-07 1.2428285e-07 1.8692724e-07
0001a0 48 f0 a7 34 26 17 38 34 9f 51 a3 34 75 18 bd 32
       3.1281002e-07 1.7144757e-07 3.0420503e-07 2.2013618e-08
0001b0 ab 33 64 33 1e a0 28 34 f1 27 c1 34 dd c4 0c 34
       5.313238e-08 1.570447e-07 3.5978113e-07 1.3110134e-07
0001c0 3e d8 43 33 71 25 ab 34 ab 39 cc 31 0a 51 0b 35
       4.5598647e-08 3.1878474e-07 5.9437375e-09 5.189946e-07
0001d0 59 03 19 33 9c 44 b5 34 2d 0e 00 34 65 17 09 35
       3.5626133e-08 3.3763797e-07 1.1926086e-07 5.107052e-07
0001e0 1e b0 40 33 3e 21 59 34 37 b1 ba 33 62 1c 49 34
       4.486366e-08 2.0221793e-07 8.693535e-08 1.872991e-07
0001f0 84 fc 86 33 c4 88 2f 34 ca 1b 04 34 3e a6 23 34
       6.2857936e-08 1.63479e-07 1.2303568e-07 1.5241037e-07
000200 68 b7 d1 33 6f e1 34 33 c6 df 0e 35 64 23 48 33
       9.765682e-08 4.2114547e-08 5.3224755e-07 4.6598316e-08
000210 12 4d ba 34 4c 50 39 33 08 ec 44 34 5e 8c 89 33
       3.4701276e-07 4.31467e-08 1.833979e-07 6.405092e-08
000220 58 b3 65 33 16 e8 10 34 9e 3e 62 33 2b fa 82 34
       5.348133e-08 1.3495477e-07 5.2676675e-08 2.4396408e-07
000230 ec df c9 34 43 6c 36 32 18 96 9d 33 18 e7 08 35
       3.7602092e-07 1.061841e-08 7.338184e-08 5.1000234e-07
000240 52 da 93 34 46 b0 a0 33 e5 8a e3 34 bd 68 24 34
       2.7539733e-07 7.4826445e-08 4.2383104e-07 1.5311794e-07
000250 1c 49 b2 34 49 8c 3a 34 f3 d5 18 34 5a c3 99 31
       3.3208278e-07 1.7373635e-07 1.4233937e-07 4.475095e-09
000260 2a e3 12 34 b1 c0 08 34 36 a6 26 34 34 fa 9f 32
       1.3679951e-07 1.2736088e-07 1.5520422e-07 1.8623815e-08
000270 f1 1d 59 30 33 35 6d 34 b2 30 06 35 da 86 24 34
       7.898669e-10 2.2091699e-07 4.998975e-07 1.5322749e-07
000280 27 98 08 34 c6 ab 04 34 f4 ff cc 33 d5 f0 df 33
       1.272134e-07 1.2355949e-07 9.546048e-08 1.0428054e-07
000290 b6 38 e9 32 f9 11 1c 34 f5 c7 a5 34 88 ef 93 34
       2.715056e-08 1.453517e-07 3.0879133e-07 2.7555166e-07
0002a0 6a b4 aa 33 ff b5 34 34 24 1b 8b 34 68 61 17 34
       7.949059e-08 1.6830016e-07 2.5910515e-07 1.4098407e-07
0002b0 8d 26 f8 34 27 11 61 33 da 89 0d 35 2c 26 c2 34
       4.622165e-07 5.2402495e-08 5.2727194e-07 3.616309e-07
0002c0 a0 1a 00 33 80 ba 80 34 4f fa 77 34 1e 0b fa 33
       2.9826538e-08 2.3977555e-07 2.309473e-07 1.16435544e-07

exp_avg f4 [1, 180]
000000 9e c3 1c ba d1 b8 3e 3a 2d 1d 9c ba 95 72 7e ba
       -0.0005980077 0.00072754646 -0.001191055 -0.0009706405
000010 b3 dc 2c ba d5 c8 80 ba 3d 65 68 ba 26 99 5b ba
       -0.0006594166 -0.0009825478 -0.00088651833 -0.0008377008
000020 05 2f ba ba 94 e8 cc b9 7f 89 76 ba 40 ba 94 ba
       -0.0014204687 -0.00039083196 -0.0009404644 -0.0011347011
000030 a4 41 bd ba a9 e3 3a ba cc c1 53 ba b7 79 24 ba
       -0.0014439118 -0.0007129261 -0.0008077889 -0.00062742404
000040 da 16 97 ba 50 2a 2e b9 10 a7 06 ba 48 56 a0 ba
       -0.0011527196 -0.00016609696 -0.00051365886 -0.0012232745
000050 2f 09 81 ba 7d 0b 77 ba 45 09 81 ba 22 5a 52 ba
       -0.0009844656 -0.0009424014 -0.0009844681 -0.0008024295
000060 25 0d 97 ba 4b c1 a5 ba 94 c3 f6 b9 ec e5 4d ba
       -0.0011524303 -0.0012646107 -0.00047066493 -0.00078543904
000070 e9 ef 6b ba 35 b0 ff b9 73 33 a6 b9 1e 3c 94 ba
       -0.0009000288 -0.00048768675 -0.0003170032 -0.001130942
000080 52 66 c5 ba c8 e5 88 ba ad 5e 84 ba 3a e1 bd 3a
       -0.0015060401 -0.0010444457 -0.0010099016 0.0014486678
000090 74 36 13 ba 23 2a 23 ba c9 f7 44 3a 0c 14 8a ba
       -0.0005615719 -0.00062242354 0.00075137295 -0.0010534539
0000a0 1a 78 af ba 1f 4f b0 39 1f 99 cc 39 0c 89 fb 38
       -0.0013387233 0.00033628286 0.00039023996 0.0001199414
0000b0 ff de 3a 39 da bf c5 b9 51 d1 8b ba e1 6d d2 b8
       0.00017821415 -0.0003771771 -0.001066724 -0.00010034047
0000c0 1b 87 99 3a 7d 24 a2 39 f9 cf 7b ba f6 df 5d ba
       0.0011713238 0.00030926234 -0.00096058805 -0.0008463854
0000d0 81 eb a4 b9 60 4d 62 ba 6d 30 7a ba cd 3b 48 b9
       -0.00031455982 -0.00086327456 -0.0009543959 -0.00019095764
0000e0 02 de 9d ba 62 43 25 ba bc 6d e0 b9 97 8e aa ba
       -0.0012044313 -0.00063042913 -0.00042806368 -0.0013012466
0000f0 e1 ad 63 ba b4 f9 37 ba 8f fc 36 ba d3 a5 03 ba
       -0.0008685273 -0.00070181047 -0.0006980383 -0.0005021963
000100 a5 91 7f ba 15 c3 59 3a 4c 43 9f ba 52 b4 86 ba
       -0.0009749181 0.00083069626 -0.0012150793 -0.0010277128
000110 3d 39 5d ba d1 6c 55 ba 1c 7a 78 3a 1c 44 2e ba
       -0.000843901 -0.000814152 0.0009478645 -0.00066477223
000120 12 3c b9 ba af 8a 9b b8 d1 33 71 ba 13 e7 70 ba
       -0.0014132282 -7.416808e-05 -0.00092011417 -0.0009189706
000130 30 56 b2 b9 12 5f 57 ba 18 64 ba ba 01 32 8c ba
       -0.0003401502 -0.00082157657 -0.0014220504 -0.0010696055
000140 a4 48 81 ba 74 97 ce ba e9 23 80 ba be 66 9e ba
       -0.0009863568 -0.0015761689 -0.0009776327 -0.0012085063
000150 c8 c5 78 ba a5 93 40 ba 35 92 16 3a 37 0a 27 ba
       -0.0009489921 -0.00073462195 0.00057438324 -0.00063720666
000160 66 ce 7a ba 44 bc 4d 3a 07 95 dc b8 04 b7 a3 3a
       -0.0009567499 0.0007848183 -0.00010518176 0.0012490456
000170 a8 59 27 ba 7a 63 89 ba 2d 55 5d 39 b1 59 80 ba
       -0.0006383904 -0.0010481917 0.00021107933 -0.0009792355
000180 59 67 07 ba b0 37 83 ba fe b3 f3 39 90 1f 32 ba
       -0.00051652413 -0.0010011103 0.00046482676 -0.00067948643
000190 08 e0 53 ba 3a 95 2f ba 7f af 12 b9 87 6c 66 ba
       -0.00080823945 -0.00066979567 -0.00013989022 -0.00087899755
0001a0 47 3d 20 ba 10 59 fd b9 70 89 33 ba 27 2b 8b 3a
       -0.00061126467 -0.00048322277 -0.0006848788 0.0010617719
0001b0 a7 ad 9a 3a ac 21 42 ba 2b e2 72 b9 85 8c 83 ba
       0.001180102 -0.000740553 -0.00023163173 -0.0010036385
0001c0 60 5c 9f ba 7b 0d 7d b9 9a c6 24 38 34 ea 83 ba
       -0.0012158267 -0.00024132982 3.928561e-05 -0.0010064305
0001d0 05 09 fb 38 be 64 54 ba 86 51 4e ba 15 0b 98 ba
       0.00011970293 -0.000810217 -0.00078704243 -0.0011599982
0001e0 cc 81 dc ba 04 18 4c ba 33 32 8b ba df 66 a7 ba
       -0.001682335 -0.0007785561 -0.0010619819 -0.0012771747
0001f0 36 33 a3 39 42 7c 72 ba 4d 5d 84 ba 33 ef 84 ba
       0.00031127938 -0.0009250083 -0.0010098607 -0.0010142088
000200 7b 58 91 ba 3a 09 f8 39 eb 93 a6 ba 8a 0b a4 ba
       -0.0011088991 0.0004730912 -0.0012708878 -0.0012515646
000210 27 b2 91 ba f7 1d 82 39 d5 15 ea b9 87 fc 15 39
       -0.0011115716 0.00024817858 -0.00044648224 0.00014303821
000220 8d bf 12 3a a4 ea 45 ba ca 9e 1c 3a 6f 44 6b ba
       0.00055980013 -0.0007549918 0.0005974589 -0.0008974736
000230 92 52 1f ba 3f e9 8e ba eb 6d d0 ba 4a 95 8b ba
       -0.00060776726 -0.0010903253 -0.0015901899 -0.001064935
000240 46 2f 11 ba c0 6d ed b9 0b 48 73 ba 96 ca 17 ba
       -0.00055383553 -0.00045285933 -0.00092804496 -0.00057903805
000250 3a 80 f4 ba 61 56 af ba 26 f8 86 ba 93 86 65 34
       -0.0018653937 -0.0013377183 -0.0010297343 2.1376245e-07
000260 bc 7b 83 ba 4a be 4a ba 73 de ed b9 eb 52 f4 39
       -0.0010031383 -0.0007734044 -0.000453699 0.00046601085
000270 e7 a2 cc 39 99 a7 89 b9 fc 42 89 ba 0e 35 1a ba
       0.00039031284 -0.00026255546 -0.0010472233 -0.00058825396
000280 13 6e fe b9 6d ba 2e ba 44 b4 1a ba 8d 16 8f ba
       -0.00048528667 -0.0006665353 -0.00059014955 -0.0010916755
000290 61 2e f8 39 e9 47 3d ba 1e c9 57 ba 95 36 5a ba
       0.000473368 -0.0007220493 -0.0008231568 -0.00083241734
0002a0 39 d7 92 3a 83 e9 c6 ba b6 42 8e b9 9c 92 c2 38
       0.0011203057 -0.0015175793 -0.00027134054 9.277949e-05
0002b0 d7 fb 86 ba a6 d0 f7 39 01 17 85 ba d3 2d 99 b8
       -0.0010298443 0.00047266966 -0.001015395 -7.304144e-05
0002c0 02 ad b1 ba fa 9f 56 ba b4 3f ad ba 29 8e 51 ba
       -0.0013555589 -0.00081872905 -0.0013217838 -0.0007993901
